Neural Network Tools for STM32AI v1.7.0 (STM.ai v8.0.1-19451)
Created date          : 2023-06-04 16:25:07
Parameters            : generate --name network -m C:/Users/Caska/Desktop/projects/Python/NetworkFilter/model/lstm.h5 --type keras --compression medium --verbosity 1 --workspace C:\Users\Caska\AppData\Local\Temp\mxAI_workspace8948496427610017968819552397966456 --output C:\Users\Caska\.stm32cubemx\network_output --allocate-inputs --series stm32f4 --allocate-outputs

Exec/report summary (generate)
------------------------------------------------------------------------------------------------------------
model file         :   C:\Users\Caska\Desktop\projects\Python\NetworkFilter\model\lstm.h5                   
type               :   keras                                                                                
c_name             :   network                                                                              
compression        :   medium                                                                               
options            :   allocate-inputs, allocate-outputs                                                    
optimization       :   balanced                                                                             
target/series      :   stm32f4                                                                              
workspace dir      :   C:\Users\Caska\AppData\Local\Temp\mxAI_workspace8948496427610017968819552397966456   
output dir         :   C:\Users\Caska\.stm32cubemx\network_output                                           
model_fmt          :   float                                                                                
model_name         :   lstm                                                                                 
model_hash         :   3a6fbc21f015cc554941894058892614                                                     
params #           :   758 items (2.96 KiB)                                                                 
------------------------------------------------------------------------------------------------------------
input 1/1          :   'input_0' (domain:activations/**default**)                                           
                   :   15 items, 60 B, ai_float, float, (1,5,1,3)                                           
output 1/1         :   'dense_4_dense' (domain:activations/**default**)                                     
                   :   2 items, 8 B, ai_float, float, (1,1,1,2)                                             
macc               :   3,804                                                                                
weights (ro)       :   3,200 B (3.12 KiB) (1 segment) / +168(+5.5%) vs float model                          
activations (rw)   :   444 B (444 B) (1 segment) *                                                          
ram (total)        :   444 B (444 B) = 444 + 0 + 0                                                          
------------------------------------------------------------------------------------------------------------
(*) 'input'/'output' buffers can be used from the activations buffer

Model name - lstm ['input_0'] ['dense_4_dense']
------ ------------------------------ ------------------ ------------ ------- -------------- --- ----------------- ----------------- ------------------ 
m_id   layer (type,original)          oshape             param/size      macc   connected to   | c_size            c_macc            c_type             
------ ------------------------------ ------------------ ------------ ------- -------------- --- ----------------- ----------------- ------------------ 
0      input_0 (Input, None)          [b:None,h:5,c:3]                                         | +1,632(+100.0%)   +1,960(+100.0%)   lstm_of32[0]       
       rnn_2 (LSTM, LSTM)             [b:None,h:5,c:8]   384/1,536      1,960        input_0   | -1,536(-100.0%)   -1,960(-100.0%)   
------ ------------------------------ ------------------ ------------ ------- -------------- --- ----------------- ----------------- ------------------ 
2      rnn_3 (LSTM, LSTM)             [b:None,c:6]       360/1,440      1,830          rnn_2   | +72(+5.0%)                          lstm_of32[1]       
------ ------------------------------ ------------------ ------------ ------- -------------- --- ----------------- ----------------- ------------------ 
3      dense_4_dense (Dense, Dense)   [b:None,c:2]       14/56             14          rnn_3   |                                     dense_of32[o][2]   
------ ------------------------------ ------------------ ------------ ------- -------------- --- ----------------- ----------------- ------------------ 
model/c-model: macc=3,804/3,804  weights=3,032/3,200 +168(+5.5%) activations=--/444 io=--/0



Generated C-graph summary
------------------------------------------------------------------------------------------------------------------------
model name            : lstm
c-name                : network
c-node #              : 3
c-array #             : 16
activations size      : 444 (1 segment)
weights size          : 3200 (1 segment)
macc                  : 3804
inputs                : ['input_0_output']
outputs               : ['dense_4_dense_output']

C-Arrays (16)
------ ----------------------- ----------- ------------------------- ------------- --------- --------- 
c_id   name (*_array)          item/size   domain/mem-pool           c-type        fmt       comment   
------ ----------------------- ----------- ------------------------- ------------- --------- --------- 
0      rnn_3_kernel            192/768     weights/weights           const float   float32             
1      input_0_output          15/60       activations/**default**   float         float32   /input    
2      rnn_3_recurrent         144/576     weights/weights           const float   float32             
3      rnn_2_output0           40/160      activations/**default**   float         float32             
4      rnn_3_output0           6/24        activations/**default**   float         float32             
5      rnn_3_peephole          18/72       weights/weights           const float   float32             
6      dense_4_dense_output    2/8         activations/**default**   float         float32   /output   
7      rnn_3_bias              24/96       weights/weights           const float   float32             
8      rnn_2_kernel            96/384      weights/weights           const float   float32             
9      dense_4_dense_weights   12/48       weights/weights           const float   float32             
10     rnn_2_recurrent         256/1024    weights/weights           const float   float32             
11     dense_4_dense_bias      2/8         weights/weights           const float   float32             
12     rnn_2_peephole          24/96       weights/weights           const float   float32             
13     rnn_2_scratch0          56/224      activations/**default**   float         float32             
14     rnn_2_bias              32/128      weights/weights           const float   float32             
15     rnn_3_scratch0          42/168      activations/**default**   float         float32             
------ ----------------------- ----------- ------------------------- ------------- --------- --------- 

C-Layers (3)
------ ---------------- ---- ------------ ------ ------ -------------------------- ------------------ 
c_id   name (*_layer)   id   layer_type   macc   rom    tensors                    shape (array id)   
------ ---------------- ---- ------------ ------ ------ -------------------------- ------------------ 
0      rnn_2            0    lstm         1960   1632   I: input_0_output          (1,5,1,3) (1)      
                                                        S: rnn_2_scratch0                             
                                                        W: rnn_2_kernel            (3,32,1,1) (8)     
                                                        W: rnn_2_recurrent         (8,32,1,1) (10)    
                                                        W: rnn_2_peephole          (1,1,1,24) (12)    
                                                        W: rnn_2_bias              (1,1,1,32) (14)    
                                                        O: rnn_2_output0           (1,5,1,8) (3)      
------ ---------------- ---- ------------ ------ ------ -------------------------- ------------------ 
1      rnn_3            2    lstm         1830   1512   I: rnn_2_output0           (1,5,1,8) (3)      
                                                        S: rnn_3_scratch0                             
                                                        W: rnn_3_kernel            (8,24,1,1) (0)     
                                                        W: rnn_3_recurrent         (6,24,1,1) (2)     
                                                        W: rnn_3_peephole          (1,1,1,18) (5)     
                                                        W: rnn_3_bias              (1,1,1,24) (7)     
                                                        O: rnn_3_output0           (1,1,1,6) (4)      
------ ---------------- ---- ------------ ------ ------ -------------------------- ------------------ 
2      dense_4_dense    3    dense        14     56     I: rnn_3_output0           (1,1,1,6) (4)      
                                                        W: dense_4_dense_weights   (6,1,1,2) (9)      
                                                        W: dense_4_dense_bias      (1,1,1,2) (11)     
                                                        O: dense_4_dense_output    (1,1,1,2) (6)      
------ ---------------- ---- ------------ ------ ------ -------------------------- ------------------ 



Number of operations per c-layer
------- ------ ----------------------- ------- -------------- -------- ---------- 
c_id    m_id   name (type)                 #op           type   #param   sparsity 
------- ------ ----------------------- ------- -------------- -------- ---------- 
0       0      rnn_2 (lstm)              1,960   smul_f32_f32      408     0.0588 
1       2      rnn_3 (lstm)              1,830   smul_f32_f32      378     0.0476 
2       3      dense_4_dense (dense)        14   smul_f32_f32       14     0.0000 
------- ------ ----------------------- ------- -------------- -------- ---------- 
total                                    3,804                     800     0.0525 

Number of operation types
---------------- ------- ----------- 
operation type         #           % 
---------------- ------- ----------- 
smul_f32_f32       3,804      100.0% 

Complexity report (model)
------ --------------- ------------------------- ------------------------- ------ 
m_id   name            c_macc                    c_rom                     c_id   
------ --------------- ------------------------- ------------------------- ------ 
0      input_0         ||||||||||||||||  51.5%   ||||||||||||||||  51.0%   [0]    
2      rnn_3           |||||||||||||||   48.1%   ||||||||||||||    47.2%   [1]    
3      dense_4_dense   |                  0.4%   |                  1.8%   [2]    
------ --------------- ------------------------- ------------------------- ------ 
macc=3,804 weights=3,200 act=444 ram_io=0

Generated files (7)
------------------------------------------------------------------ 
C:\Users\Caska\.stm32cubemx\network_output\network_config.h        
C:\Users\Caska\.stm32cubemx\network_output\network.h               
C:\Users\Caska\.stm32cubemx\network_output\network.c               
C:\Users\Caska\.stm32cubemx\network_output\network_data_params.h   
C:\Users\Caska\.stm32cubemx\network_output\network_data_params.c   
C:\Users\Caska\.stm32cubemx\network_output\network_data.h          
C:\Users\Caska\.stm32cubemx\network_output\network_data.c          
